…
    "model.add(LSTM(units = 120, activation = 'relu'))\n",
    "model.add(Dropout(0.5))\n",
    "\n",
    "model.add(Dense(units = 1))"
   ]
  },
  {
   "cell_type": "code",
   "execution_count": 18,
   "id": "2ed64d7d",
   "metadata": {},
   "outputs": [
    {
     "name": "stdout",
     "output_type": "stream",
     "text": [
      "Model: \"sequential\"\n",
      "_________________________________________________________________\n",
      " Layer (type)                Output Shape              Param #   \n",
      "=================================================================\n",
      " lstm (LSTM)                 (None, 100, 50)           10400     \n",
      "                                                                 \n",
      " dropout (Dropout)           (None, 100, 50)           0         \n",
      "                                                                 \n",
      " lstm_1 (LSTM)               (None, 100, 60)           26640     \n",
      "                                                                 \n",
      " dropout_1 (Dropout)         (None, 100, 60)           0         \n",
      "                                                                 \n",
      " lstm_2 (LSTM)               (None, 100, 80)           45120     \n",
      "                                                                 \n",
      " dropout_2 (Dropout)         (None, 100, 80)           0         \n",
      "                                                                 \n",
      " lstm_3 (LSTM)               (None, 120)               96480     \n",
      "                                                                 \n",
      " dropout_3 (Dropout)         (None, 120)               0         \n",
      "                                                                 \n",
      " dense (Dense)               (None, 1)                 121       \n",
      "                                                                 \n",
      "=================================================================\n",
      "Total params: 178,761\n",
      "Trainable params: 178,761\n",
      "Non-trainable params: 0\n",
      "_________________________________________________________________\n"
     ]
    }
   ],
   "source": [
    "model.summary()"
…
